model/encoder.tflite (tflite, 90184 bytes, 28 tensors)

encoder/dense/BiasAdd/ReadVariableOp f4 [32]
00000000: de2f 11bd 3f55 e33b 2cdb db3c f1d2 0b3d
00000010: 967e ee3c ffce c8bc b259 ca3c 3ac6 48bd
00000020: 5e8d 4f3c 56fd dcbb 9025 babc cadd b7bb
00000030: 6b9a 9b3c c9d6 8c3c 05b0 f23c 2277 123d
00000040: 9cb7 8f3c f99c cb3c b7b4 00bd 9740 e0bb
00000050: 57f4 163d b042 e63c 8330 4dbd bd31 b03b
00000060: ba5b 81bb a9f2 a53c a0d6 2bbd 7924 1e3c
00000070: 5393 71bb 19a4 53bd eef3 ccbc 09c0 be39
-0.03544604 0.0069376524 0.026837908 0.034136716 0.029113095 -0.024512766 0.024700973 -0.04901717
0.012667982 -0.006744067 -0.02272299 -0.005611156 0.01899453 0.017192261 0.029624948 0.035758145
0.017543606 0.024855124 -0.031422343 -0.006843637 0.036854114 0.028107971 -0.050095093 0.005377023
-0.0039477022 0.020257311 -0.04195273 0.00965225 -0.0036861494 -0.051670168 -0.025018658 0.000363827

encoder/dense_1/BiasAdd/ReadVariableOp f4 [32]
00000000: d859 413d b077 f43a 26e2 d03c aa70 d73b
00000010: 7fac 37bd dc3e 723b fab6 20bc 2c7a 0dbd
00000020: 9130 df3c 6718 3b3d 6424 443b 0361 863b
00000030: f556 28bc 8f87 0cbd 7d90 82bc f59b cc3c
00000040: 99f6 973c a29e b23c c05d 17bc 5935 32bd
00000050: 14d5 253c d5ea 563c ac94 f83c 56fa a03c
00000060: 6a12 3f3b 6e43 00bc e1b4 f4bb 5cba 973c
00000070: 83ff 15bb a93a 163d e3c7 1e3c 7659 c7b8
0.047204822 0.0018651392 0.025498461 0.00657471 -0.04484224 0.0036963737 -0.00980925 -0.03454034
0.027244838 0.04567757 0.0029928917 0.00410092 -0.010274638 -0.034308966 -0.015938038 0.02497671
0.018550204 0.021804158 -0.00923866 -0.043507908 0.010121603 0.013117512 0.03034433 0.01965062
0.0029155263 -0.0078285765 -0.0074678515 0.01852148 -0.0022887893 0.036677036 0.009691211 -9.505723e-05

encoder/conv1d/BiasAdd/ReadVariableOp f4 [16]
00000000: 9853 f03e e67a 9dbd 3617 28bd 0fb0 9cbd
00000010: b9b2 db3e 3ce7 d33e a355 673f 19c0 c03d
00000020: 2290 67bd 243b aabd 0270 b1bd fe51 9fbd
00000030: 3f45 203f b135 b0bd 8f68 653d 2d4a c23e
0.46938777 -0.07689457 -0.04103776 -0.07650768 0.42909792 0.41387355 0.90365046 0.0941164
-0.05653394 -0.083120614 -0.08663942 -0.07779311 0.6260566 -0.08603991 0.056007918 0.37947217

encoder/conv1d_5/BiasAdd/ReadVariableOp f4 [64]
00000000: 7511 1b3d 5d95 ed3c 580f 673d edbc 333e
00000010: c3bf 6f3d b37b c93d 6b0a 3e3e 2333 703f
00000020: 9b88 f53c cbda 8b3d e4a5 00bb 86c9 b13d
00000030: 9805 e93d e56b db3b f3e4 19bd 8a3d 0f3d
00000040: 654c 533f daf0 0f3d d7f6 233d 4d2c 183d
00000050: 72e0 9a3f cfac 1a3d c210 4abd f8d6 3b3d
00000060: c3b9 813f 0ddc b0bb 553f a43e 8a56 fe3d
00000070: 493d 153d 8dc3 8e3d b0a2 ce3d 0c01 cd3e
00000080: a49c 3e3e 7e36 f83e 4b69 603e 229a a43d
00000090: e632 b13d da35 9e3d 8eaf a13e dd70 313e
000000a0: e0b0 3b3e e367 ba3d a6da 533d 6470 5d3d
000000b0: 1ddb dcbd 8d79 5c3d d490 0a3e 3e57 643d
000000c0: 2597 f43d a61f 943d fed4 ec3c 067d 5f3f
000000d0: c5a2 863d 134e 9c3e 7195 423f 60bb 70bd
000000e0: 9ff7 083e af3c a83d 4beb f73d 278b e63b
000000f0: 5460 2e3e 9837 103e cf7c 923f 00d7 153e
0.037858445 0.029001886 0.056411117 0.17552538 0.058532488 0.09838047 0.18558662 0.9382803
0.029972365 0.06828841 -0.0019630129 0.08681016 0.1137802 0.0066962116 -0.03757186 0.034970798
0.82538444 0.035141803 0.040030327 0.037151624 1.2099745 0.03776246 -0.049332388 0.045859307
1.0134815 -0.005397326 0.32079569 0.1241885 0.0364354 0.06970892 0.10089624 0.4003986
0.18614441 0.48479074 0.21915166 0.08037211 0.08652286 0.07725115 0.3157925 0.1732821
0.18329191 0.09101846 0.05172219 0.054062262 -0.1078398 0.053826857 0.1353181 0.055747263
0.11942891 0.07232599 0.028910156 0.87300146 0.065740146 0.30528316 0.7600928 -0.058772445
0.1337571 0.082146995 0.121054254 0.007035631 0.17028934 0.14083707 1.1444339 0.14632797

encoder/conv1d_4/BiasAdd/ReadVariableOp f4 [32]
00000000: 1c24 3e3d 47f4 f53d 3600 d83d fc1a 1f3d
00000010: 9508 2ebd 13fe 3e3e 3649 86bd b70e 55bc
00000020: 3f7c 83bc 857f 2d3e b4e0 6c3d c572 3a3e
00000030: e369 b53d 5b3b 663c c758 813c 22af db38
00000040: 8768 cc3b b06a 253d 2374 0d3e 5e47 69ba
00000050: e1b4 9f3e 7014 853d 55c0 3c3e aecc 633e
00000060: f95b fdbc 50e8 3dbe d15c 233a f467 323e
00000070: e8b6 8739 dec0 7b3c 2830 87bd 6660 17be
0.046421155 0.12009483 0.10546915 0.038844094 -0.042488653 0.18651609 -0.06556933 -0.013003997
-0.016050456 0.16943176 0.05783148 0.18207844 0.08858087 0.014052237 0.015789403 0.00010475355
0.0062380466 0.04038495 0.13813834 -0.0008898879 0.31192687 0.06498039 0.18432744 0.22246048
-0.030927645 -0.18545651 0.0006231787 0.17422467 0.00025885482 0.015365807 -0.06600982 -0.14782867

encoder/conv1d_3/BiasAdd/ReadVariableOp f4 [16]
00000000: 24b2 633e c57e 6bbd 9752 0f3d c83c 83bd
00000010: c15e 86bd dbf5 4e3e be4f c93e 0a19 52bd
00000020: dc2c 803e a46c 8bbd 06a1 7c3e aaba 733d
00000030: d6a3 8abc d6e5 033f d3c0 863d 1937 99bd
0.22235924 -0.057493944 0.034990873 -0.064080775 -0.065610416 0.20210974 0.3931865 -0.05129341
0.25034225 -0.06807831 0.246708 0.05950419 -0.016923826 0.51522577 0.06579747 -0.07481212

encoder/conv1d_2/BiasAdd/ReadVariableOp f4 [64]
00000000: 5893 17be 0f6c d13c f017 52be 1fd1 ae3c
00000010: 5888 593f 593b 543e 8201 3bbd c3c2 8b3e
00000020: 8831 993d c308 7b3e 9375 db3d a9bc 46bd
00000030: 23a9 743e c3fa 93bd 93b5 0b3d 339d ce3e
00000040: d428 723d 4a36 943e 377d 6f3d 9a28 0c3d
00000050: bc9b 013f 7f14 e0bd fd90 7e3e f9d3 d63e
00000060: 21ec 543e 7205 2e3d 3549 0cbe 4368 92bd
00000070: 1efd adbd d841 13bd bb32 943e d23d 0fbe
00000080: b0f4 603d dd06 263e a66f 783e 2c18 f83d
00000090: 29f4 593c fff3 5f3d 4389 3b3f 4f53 153d
000000a0: 749c ed3e 3892 373f 3563 333f 121f 983e
000000b0: 87e0 b83c 1a1b 413e 24b1 57be 9348 193d
000000c0: aa57 5cbc f54d a7bc e48e c23c e08b ba3e
000000d0: d1f3 f23c dfd8 053e bcb8 1bbe ecd8 78ba
000000e0: 38c3 d5bd e4af 843f d112 d8bd de1c cf3c
000000f0: 1b5f 1e3f 4d13 2cbd 6d8e 4b3e aae3 76bc
-0.14802301 0.025564222 -0.20516944 0.021339951 0.8497367 0.20725764 -0.045655735 0.2729703
0.074801505 0.24515061 0.10715785 -0.048519764 0.23892646 -0.072255634 0.03410871 0.40354308
0.059120968 0.2894767 0.058469024 0.03421841 0.50628257 -0.10941409 0.24859996 0.41958597
0.20793201 0.04248566 -0.13699801 -0.071487926 -0.08495544 -0.035951465 0.28944954 -0.13988426
0.054920852 0.16213556 0.2426134 0.121139854 0.013302841 0.054676052 0.7325632 0.036456402
0.46408427 0.7170749 0.7007325 0.29711205 0.022568 0.18857995 -0.21063668 0.037422728
-0.013448635 -0.020422915 0.023749776 0.3643484 0.029657276 0.13071011 -0.1520719 -0.0009492773
-0.10437626 1.0366178 -0.10550464 0.02528232 0.6186387 -0.042010594 0.1987855 -0.015068928

encoder/conv1d_1/BiasAdd/ReadVariableOp f4 [32]
00000000: 5f96 143e 1a96 30be d663 49be 2434 f63c
00000010: 34d5 2e3e 070f b63c 83bf f03d 0099 96bc
00000020: 0622 72bd 1ae3 1cbe 3446 0ebd 9a77 e7bd
00000030: 5613 cb3c ccef b0bd 74cc d73d ec36 193d
00000040: 7193 873e 5080 483e b1b7 aa3e 817c 573e
00000050: a3c2 603d 6194 943d c49a 043e 74c4 b63c
00000060: caf6 073e ee86 b13d e42e 933e eaac 813c
00000070: 7987 7abd d4bd d9bd 243f 32bc 17f2 71bd
0.14510487 -0.17244759 -0.1966699 0.03005416 0.17073518 0.022223962 0.11755278 -0.018383503
-0.05911448 -0.15321007 -0.03473492 -0.11302109 0.024789494 -0.086394876 0.10537043 0.037405893
0.26479676 0.19580197 0.3334327 0.21043588 0.05487312 0.072548635 0.12949663 0.022310473
0.13277736 0.08668314 0.28746712 0.015829522 -0.061164353 -0.1063191 -0.010879312 -0.059068765

encoder/batch_normalization/batchnorm/sub f4 [16]
00000000: 9fac a8bf 31d0 7cbe 98dc 653e 7082 8d3e
00000010: 72b9 c9bf 2891 9ebf 680c 03c0 0f88 92bf
00000020: 56cb 14bb 79e8 a23d 8e8b 9d3e aac3 e8be
00000030: be5d adbf 7720 9fbd d8c7 4c3c a9bd a2bf
-1.317768 -0.24688794 0.22447431 0.27638578 -1.5759718 -1.2388048 -2.0476322 -1.1447772
-0.0022704205 0.07954497 0.30770534 -0.4546178 -1.3544233 -0.07769864 0.012498818 -1.271413

encoder/batch_normalization/batchnorm/mul f4 [16]
00000000: 88b2 0f3f c6fa f241 9b21 f141 45ea f741
00000010: 760e 1a3f 9a0c 193f 46c8 4e3f 01db 163f
00000020: 9b4c f641 a47b f441 817f f741 e514 fb41
00000030: 053e f63e 61b9 f341 6ba9 ed41 4511 073f
0.5613179 30.372448 30.141409 30.98939 0.60178316 0.59784853 0.80774343 0.58927923
30.787405 30.560371 30.937258 31.385202 0.48094192 30.465517 29.707724 0.52760726

encoder/batch_normalization_5/batchnorm/sub f4 [64]
00000000: 107a 12bf 4972 19bf 2ec4 1cbf aac8 fdbf
00000010: 960c 11bf 7957 7dbf 7551 a3bf ecb8 b1c0
00000020: 7632 dfbe 9a30 9fbf b3a9 f9be ae3b 19bf
00000030: e6d9 1abf ccf3 02bf c445 e6be e657 2cbf
00000040: 92ae 53c0 6e88 e6be 966c 2fbf 27b5 0cbf
00000050: d6dc 90c0 844d 21bf 2f16 c4be 3a85 0ebf
00000060: a32c 42c0 a28d f7be 6b0b 05c0 89eb 8cbf
00000070: da35 bdbe f00d 2ebf ebe6 47bf 44df bebf
00000080: 546a 10c0 f1be 0dc0 43ff cbbf 27e6 2cbf
00000090: 1ed7 50bf c7cc 82bf 2737 a6bf 12eb 58bf
000000a0: e185 b4bf 472f 16bf b7f2 61bf 3be9 16bf
000000b0: 84cd 76be d955 ecbe 0a49 59bf 2b59 4dbf
000000c0: acc4 59bf ec90 18bf aac6 03bf f680 85c0
000000d0: b2b3 fdbe de18 d8bf 3c96 2ec0 f009 e8be
000000e0: 0b49 9bbf 5fb4 2fbf 3479 b6bf bdc0 00bf
000000f0: cad4 0fbf 769e 6bbf f19c b0c0 716d 1ebf
-0.572175 -0.5994001 -0.61236846 -1.9826863 -0.5665983 -0.989616 -1.2759234 -5.5538235
-0.43593186 -1.2436707 -0.48762283 -0.5985669 -0.60488737 -0.51153255 -0.44975102 -0.6732162
-3.30753 -0.45025963 -0.68525064 -0.54963917 -4.5269575 -0.63008904 -0.38298175 -0.5567204
-3.0339744 -0.48350245 -2.078822 -1.100938 -0.36955148 -0.67990017 -0.7808673 -1.4911885
-2.2564898 -2.2147791 -1.5937275 -0.67538685 -0.8157824 -1.0218743 -1.2985581 -0.8473369
-1.4103357 -0.5866589 -0.8826098 -0.5894963 -0.24101835 -0.46159247 -0.84877074 -0.80214185
-0.8506572 -0.59596133 -0.5147501 -4.1719923 -0.4955116 -1.6882589 -2.7279196 -0.45320082
-1.2131666 -0.686346 -1.4255738 -0.50294095 -0.56184065 -0.9203867 -5.519158 -0.61885744

encoder/batch_normalization_5/batchnorm/mul f4 [64]
00000000: 945b 153f 7303 a13f 42df 403f 44b2 c33f
00000010: 2d0f 0b3f 5f6c 5e3f 1df7 773f 5fac 1a40
00000020: 1477 fe3e 15b7 543f c436 083f 9900 2d3f
00000030: 94b8 f03e 588f 233f 4075 a33f a82c 593f
00000040: 6df5 dc3f 1361 173f de5b 3d3f 6a71 1f3f
00000050: 86ab 0140 eb47 213f d26e 303f 5c4b 263f
00000060: 3d7b d83f 6a76 643f e803 a03f f5d7 453f
00000070: 0112 523f 89c6 683f ef03 573f 1e50 6d3f
00000080: 2245 d53f fecc a33f 0d2b 983f cc4b 573f
00000090: d899 423f c9c8 713f 3096 723f 67d5 443f
000000a0: d439 a63f 3159 253f a423 653f ad01 0f3f
000000b0: 3894 883f 6b22 0c3f e71e 4f3f 4af7 443f
000000c0: f083 343f c897 303f d7c3 5f3f b424 ea3f
000000d0: 6718 233f 0a38 b43f f581 b63f 6010 273f
000000e0: 5115 8a3f 1d9c 513f db40 8f3f fc61 203f
000000f0: 034a 373f 09c7 8b3f 818f 0940 5e6c 513f
0.5834286 1.2579178 0.75340664 1.5288777 0.5432003 0.8688411 0.9686144 2.4167707
0.49700224 0.8309186 0.53208566 0.67579037 0.47015822 0.638906 1.2770157 0.84833765
1.7262398 0.591325 0.73968303 0.6228243 2.026094 0.63000363 0.689191 0.6495874
1.6912609 0.89243186 1.2501192 0.7728265 0.8205872 0.9092794 0.8399038 0.92700374
1.6661723 1.2796934 1.1888138 0.8410003 0.76015997 0.94447 0.9476042 0.76888126
1.2986398 0.6458922 0.8950751 0.5586193 1.0670233 0.5474002 0.8090653 0.76939833
0.7051382 0.689816 0.874082 1.8292451 0.6370911 1.4079602 1.425841 0.6525936
1.0787755 0.81878835 1.1191667 0.6264951 0.7159731 1.0920116 2.1493838 0.8180598

encoder/batch_normalization_4/batchnorm/sub f4 [32]
00000000: 9e13 6ebf 7889 9ebf baaf d0bf 737d a9be
00000010: 6e8c 01bf 56d8 a5bf 038d 15bf a0b5 24bd
00000020: 26c6 41bf 8749 19c0 c0e6 cdbe 50c6 50c0
00000030: a348 cdbf 63f1 b3be 5dc9 7bbf 5ce7 9fbf
00000040: 8aa3 51bf 7bde b3bf 214d 93bf 06f6 29bf
00000050: fb74 83c0 232c a4be caea 4ac0 ddc3 14c0
00000060: 8159 35bf 811c 17bf 1c46 b7be 5063 ccbf
00000070: 8b05 a6be 101c 01bf e967 1abf 6991 003e
-0.92998683 -1.2385702 -1.6303627 -0.33103523 -0.50604904 -1.2956645 -0.5841829 -0.040212274
-0.75692976 -2.3951128 -0.4021511 -3.262104 -1.6037792 -0.351451 -0.9835413 -1.249248
-0.81890166 -1.4052271 -1.1507913 -0.66391027 -4.10803 -0.32064924 -3.1705804 -2.3244545
-0.708397 -0.5902787 -0.35795677 -1.5967808 -0.32426104 -0.50433445 -0.60314804 0.1255547

encoder/batch_normalization_4/batchnorm/mul f4 [32]
00000000: 94b3 ce3f e834 9d3f 2892 f33f 89f9 dd3f
00000010: 3105 5f3f 0c3f d73f 2f5b 0540 5fda 3b40
00000020: 303b c23f 4cc5 1b40 e302 cf3f 5a9b 1140
00000030: c6e4 1e40 f2a5 c53f 37ee c63f a577 723f
00000040: 9c35 0d40 18da 8b3f 617e eb3f c029 d13f
00000050: ddb9 1840 5ce0 a73f 03a9 4b40 cb25 0440
00000060: 67ce f03f 9b02 a440 dc46 6440 50da d43f
00000070: e798 8b3f 32d1 a33f 1a88 e13f 20e3 0141
1.6148553 1.2281771 1.9028978 1.7341777 0.87117296 1.6816115 2.0836904 2.9352033
1.5174313 2.433917 1.6172756 2.275107 2.4827132 1.5441267 1.5541447 0.94713813
2.206397 1.0925932 1.8397943 1.6340866 2.3863442 1.3115344 3.1821907 2.0648067
1.8812989 5.125318 3.566825 1.6629124 1.0906037 1.2798216 1.761966 8.11795

encoder/batch_normalization_3/batchnorm/sub f4 [16]
00000000: 4885 32c0 8edf ee3d 57c7 19c0 ea69 323e
00000010: 8176 e8bd 3ae5 18c0 504a 09c0 6b28 1a3b
00000020: 6f81 1fc0 f308 153e d78c 61c0 e93b a3be
00000030: 9f0d b03e 52aa 3cc0 c750 1ac0 4a96 b8be
-2.7893848 0.116637334 -2.4027917 0.17423216 -0.11350728 -2.3889909 -2.1451607 0.0023522626
-2.492275 0.14554195 -3.5242212 -0.31881645 0.34385392 -2.9478955 -2.4111803 -0.3605216

encoder/batch_normalization_3/batchnorm/mul f4 [16]
00000000: 8a2a 793f 8f60 ea41 810a 403f 8a0a f741
00000010: 5a84 f041 6e7b 2b3f 4ee1 393f 14b7 f741
00000020: 448d 713f bf8a f441 036e 863f f555 9c40
00000030: 7dc8 e241 98ce 9d3f 23ae 723f 6a8b f441
0.97330534 29.297148 0.7501603 30.880146 30.064625 0.66985214 0.7260941 30.964394
0.9435618 30.567747 1.0502323 4.885493 28.347895 1.2328672 0.9479696 30.568073

encoder/batch_normalization_2/batchnorm/sub f4 [64]
00000000: d3a6 84be 24e9 e4be a3da 5ebe 8b91 21bf
00000010: 73f6 50c0 025e f6bf a3a7 a2be f9ef b8bf
00000020: 4522 a2bf eb61 ccbf 3be3 a1bf 7322 45be
00000030: f29e aebf f17d 90be f4fd 01bf a790 1ec0
00000040: 41c9 52bf b269 48c0 5b20 81bf 05b4 48bf
00000050: 13ff 0cc0 5ecb 26be 5e02 02c0 74e7 0ac0
00000060: 7f17 1cc0 303a 4dbf 7043 8bbe c185 cdbe
00000070: f2ea 87be 5050 06bf f901 e0bf 2661 81be
00000080: b9d6 47bf 366e acbf 78d5 e1bf 514f 8bbf
00000090: 58f6 febe b2f5 d5be c2b8 4dc0 c75c 1cbf
000000a0: b663 3cc0 9f5d 70c0 f267 4dc0 cb03 c3bf
000000b0: 86ae 3cbf 5885 9fbf 14dd 8fbe 050f d4be
000000c0: 4362 ecbe c477 15bf 944c c2be dabf 37c0
000000d0: 1d9d dabe 0130 b2bf 1170 6bbe 4252 4abf
000000e0: 47aa 9dbe e0a8 87c0 7c7f 26bf f889 52bf
000000f0: 04b0 19c0 ac0a b2be fb40 cbbf eaca debe
-0.25908527 -0.44709122 -0.21763091 -0.63112706 -3.265042 -1.9247439 -0.31768522 -1.4448234
-1.2666708 -1.5967382 -1.264747 -0.19251423 -1.3642256 -0.28221086 -0.50778127 -2.4775789
-0.8233834 -3.1314511 -1.0087999 -0.7839969 -2.2030685 -0.16288516 -2.0313945 -2.1703768
-2.438934 -0.8016691 -0.27199888 -0.4014111 -0.26546437 -0.524663 -1.7500602 -0.2526943
-0.78062016 -1.3471134 -1.764327 -1.088358 -0.4979732 -0.41789013 -3.2144017 -0.61079067
-2.9435859 -3.7557142 -3.2094693 -1.5235533 -0.737038 -1.2462568 -0.28098357 -0.4141771
-0.46168718 -0.5838587 -0.3794905 -2.8710847 -0.42697993 -1.39209 -0.22991969 -0.79031765
-0.30793974 -4.2393646 -0.65038276 -0.82241774 -2.4013681 -0.34773767 -1.5879205 -0.43514186

encoder/batch_normalization_2/batchnorm/mul f4 [64]
00000000: 3f28 843f ecf0 543f 84ed 623f ccf4 173f
00000010: 8001 d43f 96e0 b33f 03ca 903f cf19 973f
00000020: 7f81 903f 1a0e 8b3f 8d50 a03f 4abe bc3f
00000030: e6ab 983f 4017 d93f 8ef4 3f3f f150 e93f
00000040: b2d6 413f 184d fe3f 774e 5c3f cff6 6c3f
00000050: 566e ea3f c3ef 803f 3a92 0040 c2a0 d73f
00000060: 785a ed3f acf2 4e3f 3dc3 7d3f 5c14 3c3f
00000070: 55e3 ba3f 71d7 9d3f 2791 bd3f 331f 6a3f
00000080: 4be2 0c3f 13ed 9a3f e71f f23f 13c5 7a3f
00000090: 6427 263f 6770 893f 1f14 e03f f62e 0d3f
000000a0: f85f f53f 3736 1340 77c1 0b40 bad5 a43f
000000b0: 4104 0c3f 56f1 943f 1d21 0f40 7041 6a3f
000000c0: 1b29 2f3f 04c7 163f 7d05 8e3f f39c e63f
000000d0: 5075 803f fd1c b03f e412 5f3f 1e3e 393f
000000e0: 1ba3 5a3f c584 1c40 79db 6c3f 0a11 0c3f
000000f0: 029c df3f 1c9b 8e3f dc6d b03f 9cd5 603f
1.0324782 0.8318012 0.8864367 0.59357905 1.6562958 1.4052913 1.1311649 1.1804751
1.1289519 1.0863678 1.2524582 1.4745572 1.1927459 1.696022 0.74982536 1.8227826
0.75718224 1.9867277 0.8605723 0.925641 1.8314922 1.007317 2.008925 1.6845934
1.8543234 0.8083904 0.99126035 0.73468566 1.4600626 1.2331372 1.4809922 0.91453856
0.55032796 1.2103599 1.8915986 0.9795696 0.64903855 1.0737427 1.750614 0.5514978
1.9169912 2.300184 2.1836832 1.2877724 0.5469399 1.163615 2.236396 0.915061
0.68422097 0.58897424 1.1095425 1.8016647 1.0035801 1.3758847 0.871382 0.7236041
0.8540513 2.4456036 0.9252239 0.547135 1.7469485 1.1141086 1.3783526 0.8782594

encoder/batch_normalization_1/batchnorm/sub f4 [32]
00000000: 69ae 47c0 8575 0fbf 1783 66bf 8aca 6abf
00000010: 97f7 16c0 a1ae 3dbf 1071 babf e1c9 1dbf
00000020: b8c1 8cbe 4e20 2a3e f714 3cbf a490 8cbe
00000030: c218 65bf 3447 0abf 0afd 88bf 1b35 77bf
00000040: c467 f0c0 3ff1 a1c0 f9fd 9ec0 cf06 28c0
00000050: 9040 c4bf 3edf 06c0 dc48 42c0 a31a 26bf
00000060: 286f 01c0 8c01 e7bf 048e 91c0 bf28 4dbf
00000070: 9e4e 3abf 5962 d5be 81ba 3fbf 824a 87bf
-3.1200202 -0.56038696 -0.9004378 -0.917153 -2.3588617 -0.7409459 -1.4565754 -0.6163617
-0.27491546 0.16613886 -0.7346949 -0.27454102 -0.894909 -0.540149 -1.0702221 -0.9656541
-7.5126667 -5.060699 -4.9685025 -2.6254156 -1.5332203 -2.1073756 -3.035697 -0.64884394
-2.0224094 -1.8047347 -4.548586 -0.801403 -0.7277621 -0.41676596 -0.7489396 -1.0569613

encoder/batch_normalization_1/batchnorm/mul f4 [32]
00000000: ee83 4c40 37dc 2141 f860 a340 04be ee3f
00000010: e71d 0940 fc22 473f 389f 0540 0fac d53f
00000020: a35d 4040 e175 f140 9b9a 6a40 2093 e040
00000030: fa55 663f e9a7 c33f 00de 953f 9474 0f40
00000040: b1cb a640 8c4f 9740 2f8f 6340 ad0a 2840
00000050: 7263 e03f a921 3f40 55bd 3340 ee65 693f
00000060: b048 3540 7670 da3f 1fe0 5140 61ba 8b3f
00000070: aeb8 a43f 5b86 9940 721b ba3f 1888 0f40
3.1955523 10.116263 5.105587 1.8651738 2.14245 0.77787757 2.087843 1.6693133
3.0057151 7.5456395 3.6656864 7.0179596 0.8997494 1.5285617 1.1708374 2.2414904
5.2123647 4.7284603 3.5556142 2.6256516 1.7530348 2.9864295 2.808431 0.9117116
2.8325615 1.706557 3.2793043 1.0916253 1.286886 4.797651 1.4539626 2.2426815

encoder/conv1d_5/Conv1D i1 [64, 1, 5, 32]
00000000: 270d f8c7 43f3 2221 10d3 dadc e42e cf21
00000010: 2dcb f0c7 fff8 2136 0cfa d72d 2de4 e9f4
00000020: d1cf 44f9 37ef 2512 3533 d11a 4266 34f7
00000030: 2a36 f7f7 280a 241d f127 1d1e 1be6 ee0a
00000040: d9df ec10 cfec 78e1 dff8 07f2 e726 7fee
00000050: c0f9 622f da3e e919 d4ee bff8 20e1 0de5
00000060: ddda 0ec8 f0f6 1b0c 11cc 19c9 10e5 f6db
00000070: 2f29 f10c ea24 35fe 02bf 1036 2bcd 0eec
00000080: e0d8 0de3 1c1a 2f0d 01f0 22c6 02f2 f0e8
00000090: ea29 41d1 343d 06e0 ddf0 effd e513 1028
000000a0: 061d 390c fb03 e9e9 0ff2 18f4 ea19 ef35
000000b0: fb0b 2d29 ad3c f702 3aec faed c4f8 ffff
000000c0: 1c63 cb02 1f08 293d f3e2 5702 cef2 1f7f
000000d0: 520a b5e7 1718 1ff3 13c8 0f00 1b12 d5e8
000000e0: 0f57 21e2 2023 0bd2 14c6 1030 2be1 a258
000000f0: 42df fa05 1fd6 e7de 46f4 0e2b ec08 e9ed
39 13 -8 -57 67 -13 34 33
16 -45 -38 -36 -28 46 -49 33
45 -53 -16 -57 -1 -8 33 54
12 -6 -41 45 45 -28 -23 -12
-47 -49 68 -7 55 -17 37 18
53 51 -47 26 66 102 52 -9
42 54 -9 -9 40 10 36 29
-15 39 29 30 27 -26 -18 10
-39 -33 -20 16 -49 -20 120 -31
-33 -8 7 -14 -25 38 127 -18
-64 -7 98 47 -38 62 -23 25
-44 -18 -65 -8 32 -31 13 -27
-35 -38 14 -56 -16 -10 27 12
17 -52 25 -55 16 -27 -10 -37
47 41 -15 12 -22 36 53 -2
2 -65 16 54 43 -51 14 -20
-32 -40 13 -29 28 26 47 13
1 -16 34 -58 2 -14 -16 -24
-22 41 65 -47 52 61 6 -32
-35 -16 -17 -3 -27 19 16 40
6 29 57 12 -5 3 -23 -23
15 -14 24 -12 -22 25 -17 53
-5 11 45 41 -83 60 -9 2
58 -20 -6 -19 -60 -8 -1 -1
28 99 -53 2 31 8 41 61
-13 -30 87 2 -50 -14 31 127
82 10 -75 -25 23 24 31 -13
19 -56 15 0 27 18 -43 -24
15 87 33 -30 32 35 11 -46
20 -58 16 48 43 -31 -94 88
66 -33 -6 5 31 -42 -25 -34
70 -12 14 43 -20 8 -23 -19

encoder/conv1d_4/Conv1D i1 [32, 1, 5, 16]
00000000: 04bb ce2e 25ff 0b0a 12e3 e025 f4bc ec3b
00000010: 7f2b feff 0e19 0f02 eb1d e4bb 1ae4 d2e8
00000020: 46df d4da e927 2924 f11e 211d 5548 0ee1
00000030: 09c2 0de3 fae7 32e8 f404 ea01 f527 1b04
00000040: 40e3 f027 d911 2529 ede7 3b2b 161c fafb
00000050: 1c07 564e d0ca 0df1 c6f4 0421 e508 ffac
00000060: 1306 f94d 1f3f 4af8 eff2 5393 2d39 33b7
00000070: ebd4 0a39 e13d b109 1016 0ef0 5c43 3d94
00000080: 0923 3f31 30b9 1ff9 c1fd 2aa2 5e7f d18b
00000090: 3d29 f943 d0b1 a844 ec26 5ec2 1249 b8bb
000000a0: fec6 01f5 2e49 f200 1de2 eaee 3e5b 49c8
000000b0: 2901 1d32 30bf f2db b80c b8d6 7d45 f3e9
000000c0: 0afd 31ed f91c f244 4443 f29e 7f14 1a85
000000d0: 0a3f 15d3 f7e3 14c6 de15 e2e6 2d19 b6d5
000000e0: d106 1815 32ea f7fa b82e 020d 52e3 b3ea
000000f0: bb32 24c8 cae1 b54a e6e4 c5ee bbc1 2c31
4 -69 -50 46 37 -1 11 10
18 -29 -32 37 -12 -68 -20 59
127 43 -2 -1 14 25 15 2
-21 29 -28 -69 26 -28 -46 -24
70 -33 -44 -38 -23 39 41 36
-15 30 33 29 85 72 14 -31
9 -62 13 -29 -6 -25 50 -24
-12 4 -22 1 -11 39 27 4
64 -29 -16 39 -39 17 37 41
-19 -25 59 43 22 28 -6 -5
28 7 86 78 -48 -54 13 -15
-58 -12 4 33 -27 8 -1 -84
19 6 -7 77 31 63 74 -8
-17 -14 83 -109 45 57 51 -73
-21 -44 10 57 -31 61 -79 9
16 22 14 -16 92 67 61 -108
9 35 63 49 48 -71 31 -7
-63 -3 42 -94 94 127 -47 -117
61 41 -7 67 -48 -79 -88 68
-20 38 94 -62 18 73 -72 -69
-2 -58 1 -11 46 73 -14 0
29 -30 -22 -18 62 91 73 -56
41 1 29 50 48 -65 -14 -37
-72 12 -72 -42 125 69 -13 -23
10 -3 49 -19 -7 28 -14 68
68 67 -14 -98 127 20 26 -123
10 63 21 -45 -9 -29 20 -58
-34 21 -30 -26 45 25 -74 -43
-47 6 24 21 50 -22 -9 -6
-72 46 2 13 82 -29 -77 -22
-69 50 36 -56 -54 -31 -75 74
-26 -28 -59 -18 -69 -63 44 49

encoder/conv1d_3/Conv1D i1 [16, 1, 5, 64]
00000000: 391a 081b 0322 0e09 0ef2 ee05 0700 dfd1
00000010: cfda f0d5 dfdb fbd9 07c2 1204 00e9 14ec
00000020: f926 f815 1900 38e9 fe2c 0534 061d 23fa
00000030: 1ae9 0a2e fd4e 35ee 3fda e920 1b48 ec41
00000040: 6655 697a 6048 4a1e 0d25 1632 071f 0b0e
00000050: 090c ebf7 0ffc d7e9 e9f7 d004 fd12 e610
00000060: fbfb 34fa 262e fe30 1c1b 1816 12ee 32f9
00000070: 2011 ee52 471a 1353 ec1e 2402 3aea 2e1d
00000080: 7d2d 617f 5845 342f 360f 07f6 28f7 04d5
00000090: d5e9 bf0a c8ea ffe0 c811 1add eef2 dd05
000000a0: 1629 dde0 2011 daf0 fe06 020b 0432 d906
000000b0: 0d3c 3102 021f 4ff2 e829 3d2f ff26 33df
000000c0: 5d5d 476c 342a 222b f31d 3707 31ec dbfa
000000d0: 0f0e e8fa d7f5 ce00 08f8 f8f3 0612 f5ea
000000e0: 0411 3038 0c0b 522e 35fa f3ee 110c 1b41
000000f0: fc07 1fe8 3aec 1f21 eb19 1a1d 3019 0b11
57 26 8 27 3 34 14 9
14 -14 -18 5 7 0 -33 -47
-49 -38 -16 -43 -33 -37 -5 -39
7 -62 18 4 0 -23 20 -20
-7 38 -8 21 25 0 56 -23
-2 44 5 52 6 29 35 -6
26 -23 10 46 -3 78 53 -18
63 -38 -23 32 27 72 -20 65
102 85 105 122 96 72 74 30
13 37 22 50 7 31 11 14
9 12 -21 -9 15 -4 -41 -23
-23 -9 -48 4 -3 18 -26 16
-5 -5 52 -6 38 46 -2 48
28 27 24 22 18 -18 50 -7
32 17 -18 82 71 26 19 83
-20 30 36 2 58 -22 46 29
125 45 97 127 88 69 52 47
54 15 7 -10 40 -9 4 -43
-43 -23 -65 10 -56 -22 -1 -32
-56 17 26 -35 -18 -14 -35 5
22 41 -35 -32 32 17 -38 -16
-2 6 2 11 4 50 -39 6
13 60 49 2 2 31 79 -14
-24 41 61 47 -1 38 51 -33
93 93 71 108 52 42 34 43
-13 29 55 7 49 -20 -37 -6
15 14 -24 -6 -41 -11 -50 0
8 -8 -8 -13 6 18 -11 -22
4 17 48 56 12 11 82 46
53 -6 -13 -18 17 12 27 65
-4 7 31 -24 58 -20 31 33
-21 25 26 29 48 25 11 17

encoder/conv1d_2/Conv1D i1 [64, 1, 5, 32]
00000000: f31d 2b02 002b f815 0135 360b f054 41df
00000010: 0aec e4f3 b8d5 ffdf c989 c9e9 0e07 2b06
00000020: fc13 dce8 ff26 d846 3548 fa1d 27e5 fddb
00000030: def2 3918 15c7 08d6 ccd5 f52b 0061 f411
00000040: cef1 49f7 b231 0efc 08f2 e8fd 0a2c 3a42
00000050: f226 141c f8af b9ed 2bb0 50d5 1671 cfd8
00000060: c52b 4b19 a9fc 1bf2 f0d0 cb08 d6fb 700f
00000070: 2336 05e3 2b0b eafc 00e6 3746 2e7f e8f8
00000080: 48cf 2cea e85a 0e03 d5e1 3701 f52b 5f4a
00000090: 0843 3ae7 e510 3409 092c 4452 fd09 cdf7
000000a0: b1aa 0a36 8abd 8103 0942 3905 c628 3ceb
000000b0: d735 76cd dc30 e4c8 a6f6 23ef f3de 4eeb
000000c0: 2d32 25b9 eb1d 06cf 015d 4f00 40fc 0bf4
000000d0: d738 2d1d 3de3 8ff1 d7e4 e717 41f0 22d0
000000e0: bdf2 d511 bad1 2915 f114 183c 2a2c df27
000000f0: e13c f95f 90c2 c53a b6cc d6bc e33e ecda
-13 29 43 2 0 43 -8 21
1 53 54 11 -16 84 65 -33
10 -20 -28 -13 -72 -43 -1 -33
-55 -119 -55 -23 14 7 43 6
-4 19 -36 -24 -1 38 -40 70
53 72 -6 29 39 -27 -3 -37
-34 -14 57 24 21 -57 8 -42
-52 -43 -11 43 0 97 -12 17
-50 -15 73 -9 -78 49 14 -4
8 -14 -24 -3 10 44 58 66
-14 38 20 28 -8 -81 -71 -19
43 -80 80 -43 22 113 -49 -40
-59 43 75 25 -87 -4 27 -14
-16 -48 -53 8 -42 -5 112 15
35 54 5 -29 43 11 -22 -4
0 -26 55 70 46 127 -24 -8
72 -49 44 -22 -24 90 14 3
-43 -31 55 1 -11 43 95 74
8 67 58 -25 -27 16 52 9
9 44 68 82 -3 9 -51 -9
-79 -86 10 54 -118 -67 -127 3
9 66 57 5 -58 40 60 -21
-41 53 118 -51 -36 48 -28 -56
-90 -10 35 -17 -13 -34 78 -21
45 50 37 -71 -21 29 6 -49
1 93 79 0 64 -4 11 -12
-41 56 45 29 61 -29 -113 -15
-41 -28 -25 23 65 -16 34 -48
-67 -14 -43 17 -70 -47 41 21
-15 20 24 60 42 44 -33 39
-31 60 -7 95 -112 -62 -59 58
-74 -52 -42 -68 -29 62 -20 -38

encoder/conv1d_1/Conv1D i1 [32, 1, 5, 16]
00000000: 4400 1b2b 5ae7 0f25 3a36 28f6 321e 1d33
00000010: 10d0 3d7f c6d3 e5c2 ecff 3fdb f21a fdfd
00000020: 48e7 7476 1000 d9f3 ff14 51b3 3f0e 29df
00000030: 9fe9 2f4d f8d9 1fc8 c350 01e8 050f e92a
00000040: f6ed 090e 33de 43d1 1a2a 5eca 07b3 3ee2
00000050: c65f fed2 1fd4 2cfb fdbb a074 e514 d9d4
00000060: 1c38 e498 02b1 e514 b2c6 0f13 c6ee 1c0c
00000070: b51c d3d4 aa03 d7f0 2524 0f3e bd5f eecf
00000080: 4322 c5b8 e0c4 f732 2302 e237 f1ef 11fe
00000090: de7f f483 fb22 013d 10de bf63 b94e 142e
000000a0: e73c 86c8 deb6 e3b2 c3bf 8126 bf14 160e
000000b0: 061e 01d7 cbf4 0bf5 2ecc cf32 d44e 15ab
000000c0: 20f9 b5d8 0b2e f93d 31cd c254 1df3 11db
000000d0: 1e02 d107 2e3c f020 36ce 210b daf8 530d
000000e0: f6f6 11e9 1ae1 13f2 ef41 10d1 30d6 3cff
000000f0: 49ad 67ef afee 14b5 b7d6 c6e4 c2fa 79ea
68 0 27 43 90 -25 15 37
58 54 40 -10 50 30 29 51
16 -48 61 127 -58 -45 -27 -62
-20 -1 63 -37 -14 26 -3 -3
72 -25 116 118 16 0 -39 -13
-1 20 81 -77 63 14 41 -33
-97 -23 47 77 -8 -39 31 -56
-61 80 1 -24 5 15 -23 42
-10 -19 9 14 51 -34 67 -47
26 42 94 -54 7 -77 62 -30
-58 95 -2 -46 31 -44 44 -5
-3 -69 -96 116 -27 20 -39 -44
28 56 -28 -104 2 -79 -27 20
-78 -58 15 19 -58 -18 28 12
-75 28 -45 -44 -86 3 -41 -16
37 36 15 62 -67 95 -18 -49
67 34 -59 -72 -32 -60 -9 50
35 2 -30 55 -15 -17 17 -2
-34 127 -12 -125 -5 34 1 61
16 -34 -65 99 -71 78 20 46
-25 60 -122 -56 -34 -74 -29 -78
-61 -65 -127 38 -65 20 22 14
6 30 1 -41 -53 -12 11 -11
46 -52 -49 50 -44 78 21 -85
32 -7 -75 -40 11 46 -7 61
49 -51 -62 84 29 -13 17 -37
30 2 -47 7 46 60 -16 32
54 -50 33 11 -38 -8 83 13
-10 -10 17 -23 26 -31 19 -14
-17 65 16 -47 48 -42 60 -1
73 -83 103 -17 -81 -18 20 -75
-73 -42 -58 -28 -62 -6 121 -22

encoder/conv1d/Conv1D i1 [16, 1, 5, 64]
00000000: fefb 0fe0 f4ee e9e3 fceb e9f7 d803 f3f8
00000010: f0f3 e90c f2f7 0502 130a ef13 080b 20ff
00000020: 1602 1502 18fc fb10 1401 fc0a 08f7 f6f1
00000030: f8f3 d9f3 eae8 d207 ede5 e1e4 d0e0 ebee
00000040: 3315 184e 1931 4129 442a 413a 342e 3837
00000050: 384b 3d28 492a 4f44 3623 504a 2b40 2e34
00000060: 2e27 3d2d 162f 1918 1cff 13f9 01fc ec04
00000070: e1fe edd6 efdd e5ce dac7 f5c9 e2d2 eef4
00000080: 375f 5d58 535d 636f 5676 6864 6e6f 7d6b
00000090: 7f68 6c72 626c 7a47 7867 5154 5b62 5054
000000a0: 5639 3f22 3736 2f20 1b34 1422 001d 1bf3
000000b0: 09f3 f7f7 0e0f ed0e f9fd 0aef 0014 f610
000000c0: 310d 0326 1a21 0b15 1d10 2423 090c 1323
000000d0: 021d 1526 f31e 0312 ff12 0303 0bf2 fef2
000000e0: e30d d5f4 f5ce f1e9 ccd4 cfe9 c3dc c9be
000000f0: c9d2 b9d9 b7cb dca8 d6c4 c1b2 f5a3 ede7
-2 -5 15 -32 -12 -18 -23 -29
-4 -21 -23 -9 -40 3 -13 -8
-16 -13 -23 12 -14 -9 5 2
19 10 -17 19 8 11 32 -1
22 2 21 2 24 -4 -5 16
20 1 -4 10 8 -9 -10 -15
-8 -13 -39 -13 -22 -24 -46 7
-19 -27 -31 -28 -48 -32 -21 -18
51 21 24 78 25 49 65 41
68 42 65 58 52 46 56 55
56 75 61 40 73 42 79 68
54 35 80 74 43 64 46 52
46 39 61 45 22 47 25 24
28 -1 19 -7 1 -4 -20 4
-31 -2 -19 -42 -17 -35 -27 -50
-38 -57 -11 -55 -30 -46 -18 -12
55 95 93 88 83 93 99 111
86 118 104 100 110 111 125 107
127 104 108 114 98 108 122 71
120 103 81 84 91 98 80 84
86 57 63 34 55 54 47 32
27 52 20 34 0 29 27 -13
9 -13 -9 -9 14 15 -19 14
-7 -3 10 -17 0 20 -10 16
49 13 3 38 26 33 11 21
29 16 36 35 9 12 19 35
2 29 21 38 -13 30 3 18
-1 18 3 3 11 -14 -2 -14
-29 13 -43 -12 -11 -50 -15 -23
-52 -44 -49 -23 -61 -36 -55 -66
-55 -46 -71 -39 -73 -53 -36 -88
-42 -60 -63 -78 -11 -93 -19 -25

encoder/dense_1/MatMul i1 [32, 512] scale=0.002915989 zero_point=0
00000000: f743 2ac1 0df5 03a2 0a26 132b fffc cf2e
00000010: e3dc 04c9 d0fc eef6 d2de e529 06f9 c807
00000020: eff4 123d 3302 3414 efe8 f5e7 e513 ff0b
00000030: 21d5 1049 d915 2e11 24d3 d2cb d51c 0302
00000040: ddff f10e 0106 f8e9 1fe1 0a0e 260f 231b
00000050: 18f8 e6d7 3205 ed08 2108 e6dc ec1b ecf6
00000060: 250a fa04 e1ef 0afe 2a04 0e0e e40d f1f2
00000070: 1a0a 10f9 e308 3006 de0b 22f5 09fb cef3
00000080: fae6 ec04 ec0b f416 f0e8 17e7 0e1c 1c15
00000090: e620 f7fa 5120 f1ef 2314 03de 070e 0a15
000000a0: c1cd 1d09 e912 ccce eefc e807 1402 f9e8
000000b0: 0af2 0bcd fc16 09e8 0812 161c f3de fb1f
000000c0: 07fc 10fb faf9 fd05 0cfb 22fc f0f4 10ef
000000d0: e609 d5f1 1d07 f413 fb12 efdf ef10 fa16
000000e0: e909 eddf ecf9 04dd 0d08 081d 0d1a 0005
000000f0: f00d 0c14 1ff1 da01 f5f2 e308 fb11 4df8
-0.0262439 0.19537126 0.12247153 -0.1837073 0.037907857 -0.03207588 0.008747967 -0.27410296
0.029159889 0.110807575 0.055403788 0.12538752 -0.002915989 -0.011663956 -0.14288345 0.13413548
-0.08456368 -0.1049756 0.011663956 -0.1603794 -0.13996747 -0.011663956 -0.0524878 -0.029159889
-0.13413548 -0.099143624 -0.0787317 0.11955555 0.017495934 -0.020411922 -0.16329537 0.020411922
-0.049571812 -0.034991868 0.0524878 0.17787533 0.14871544 0.005831978 0.15163143 0.058319777
-0.049571812 -0.069983736 -0.03207588 -0.07289972 -0.0787317 0.055403788 -0.002915989 0.03207588
0.09622763 -0.12538752 0.046655823 0.21286719 -0.11372357 0.061235767 0.13413548 0.049571812
0.1049756 -0.1312195 -0.13413548 -0.15454741 -0.12538752 0.08164769 0.008747967 0.005831978
-0.10205961 -0.002915989 -0.043739833 0.040823843 0.002915989 0.017495934 -0.023327911 -0.06706774
0.09039566 -0.09039566 0.029159889 0.040823843 0.110807575 0.043739833 0.10205961 0.0787317
0.069983736 -0.023327911 -0.075815715 -0.11955555 0.14579944 0.014579944 -0.055403788 0.023327911
0.09622763 0.023327911 -0.075815715 -0.1049756 -0.058319777 0.0787317 -0.058319777 -0.029159889
0.10789159 0.029159889 -0.017495934 0.011663956 -0.09039566 -0.049571812 0.029159889 -0.005831978
0.12247153 0.011663956 0.040823843 0.040823843 -0.08164769 0.037907857 -0.043739833 -0.040823843
0.075815715 0.029159889 0.046655823 -0.020411922 -0.08456368 0.023327911 0.13996747 0.017495934
-0.099143624 0.03207588 0.099143624 -0.03207588 0.0262439 -0.014579944 -0.14579944 -0.037907857
-0.017495934 -0.075815715 -0.058319777 0.011663956 -0.058319777 0.03207588 -0.034991868 0.06415176
-0.046655823 -0.069983736 0.06706774 -0.07289972 0.040823843 0.08164769 0.08164769 0.061235767
-0.075815715 0.093311645 -0.0262439 -0.017495934 0.2361951 0.093311645 -0.043739833 -0.049571812
0.10205961 0.058319777 0.008747967 -0.099143624 0.020411922 0.040823843 0.029159889 0.061235767
-0.1837073 -0.14871544 0.08456368 0.0262439 -0.06706774 0.0524878 -0.15163143 -0.14579944
-0.0524878 -0.011663956 -0.069983736 0.020411922 0.058319777 0.005831978 -0.020411922 -0.069983736
0.029159889 -0.040823843 0.03207588 -0.14871544 -0.011663956 0.06415176 0.0262439 -0.069983736
0.023327911 0.0524878 0.06415176 0.08164769 -0.037907857 -0.099143624 -0.014579944 0.09039566
0.020411922 -0.011663956 0.046655823 -0.014579944 -0.017495934 -0.020411922 -0.008747967 0.014579944
0.034991868 -0.014579944 0.099143624 -0.011663956 -0.046655823 -0.034991868 0.046655823 -0.049571812
-0.075815715 0.0262439 -0.12538752 -0.043739833 0.08456368 0.020411922 -0.034991868 0.055403788
-0.014579944 0.0524878 -0.049571812 -0.09622763 -0.049571812 0.046655823 -0.017495934 0.06415176
-0.06706774 0.0262439 -0.055403788 -0.09622763 -0.058319777 -0.020411922 0.011663956 -0.10205961
0.037907857 0.023327911 0.023327911 0.08456368 0.037907857 0.075815715 0.0 0.014579944
-0.046655823 0.037907857 0.034991868 0.058319777 0.09039566 -0.043739833 -0.110807575 0.002915989
-0.03207588 -0.040823843 -0.08456368 0.023327911 -0.014579944 0.049571812 0.22453114 -0.023327911

encoder/dense/MatMul i1 [32, 512] scale=0.003294862 zero_point=0
00000000: 2315 2d05 10dd 0314 eed9 d61c f011 1e02
00000010: e8fc 00cd 1407 eb1f dbf1 ed0f 2012 fa08
00000020: e4d9 ea02 291e fa0e dee1 3ff4 28e1 fd27
00000030: 19f3 1416 11f5 2b0f f81d fffe 1afe e42f
00000040: 21ff 1912 d9fa 05de db0a eaf3 0414 0116
00000050: 05e2 e3d7 f9f9 f8c4 e5f2 ed0a 20f8 e31d
00000060: 0e0d f605 0a02 f601 ff10 ecc9 27f7 0608
00000070: 182c 29d9 03ea f9f5 19e7 21ec d312 e308
00000080: f806 f104 e90b f0ea ff13 01e9 2109 eff0
00000090: 0513 2318 2bf4 0508 0aec ee0d f2f3 0210
000000a0: f015 1e04 24f4 f301 d6cd c5e8 f6f9 0f06
000000b0: eb1d 1320 0afa 181c 1e2d 0bfe c7ef ed24
000000c0: ec21 18f6 fed7 0424 fbcc e3f4 0f0a 0e41
000000d0: 0ed3 eafd eb0b 0d0a 25fc 08ef 0004 1ce4
000000e0: 1ddd 3ef6 1cf7 1bdd 1bdc 3d38 f7fe e9eb
000000f0: 1ffe 1c19 f910 e4e3 e524 e22e 060b 37e9
0.115320176 0.069192104 0.14826879 0.01647431 0.052717794 -0.115320176 0.009884587 0.06589724
-0.05930752 -0.12849963 -0.13838421 0.092256136 -0.052717794 0.056012657 0.09884586 0.006589724
-0.07907669 -0.013179448 0.0 -0.16803797 0.06589724 0.023064034 -0.069192104 0.102140725
-0.1219099 -0.04942293 -0.06260238 0.04942293 0.10543559 0.05930752 -0.019769173 0.026358897
-0.092256136 -0.12849963 -0.07248697 0.006589724 0.13508935 0.09884586 -0.019769173 0.046128068
-0.11202531 -0.102140725 0.20757632 -0.039538346 0.13179448 -0.102140725 -0.009884587 0.12849963
0.082371555 -0.04283321 0.06589724 0.07248697 0.056012657 -0.036243483 0.14167906 0.04942293
-0.026358897 0.095551 -0.003294862 -0.006589724 0.08566642 -0.006589724 -0.092256136 0.15485851
0.10873045 -0.003294862 0.082371555 0.05930752 -0.12849963 -0.019769173 0.01647431 -0.11202531
-0.1219099 0.03294862 -0.07248697 -0.04283321 0.013179448 0.06589724 0.003294862 0.07248697
0.01647431 -0.09884586 -0.095551 -0.13508935 -0.023064034 -0.023064034 -0.026358897 -0.19769172
-0.08896127 -0.046128068 -0.06260238 0.03294862 0.10543559 -0.026358897 -0.095551 0.095551
0.046128068 0.04283321 -0.03294862 0.01647431 0.03294862 0.006589724 -0.03294862 0.003294862
-0.003294862 0.052717794 -0.06589724 -0.18121742 0.12849963 -0.02965376 0.019769173 0.026358897
0.07907669 0.14497393 0.13508935 -0.12849963 0.009884587 -0.07248697 -0.023064034 -0.036243483
0.082371555 -0.082371555 0.10873045 -0.06589724 -0.14826879 0.05930752 -0.095551 0.026358897
-0.026358897 0.019769173 -0.04942293 0.013179448 -0.07578183 0.036243483 -0.052717794 -0.07248697
-0.003294862 0.06260238 0.003294862 -0.07578183 0.10873045 0.02965376 -0.056012657 -0.052717794
0.01647431 0.06260238 0.115320176 0.07907669 0.14167906 -0.039538346 0.01647431 0.026358897
0.03294862 -0.06589724 -0.05930752 0.04283321 -0.046128068 -0.04283321 0.006589724 0.052717794
-0.052717794 0.069192104 0.09884586 0.013179448 0.11861504 -0.039538346 -0.04283321 0.003294862
-0.13838421 -0.16803797 -0.19439687 -0.07907669 -0.03294862 -0.023064034 0.04942293 0.019769173
-0.069192104 0.095551 0.06260238 0.10543559 0.03294862 -0.019769173 0.07907669 0.092256136
0.09884586 0.14826879 0.036243483 -0.006589724 -0.18780714 -0.056012657 -0.06260238 0.11861504
-0.06589724 0.10873045 0.07907669 -0.03294862 -0.006589724 -0.13508935 0.013179448 0.11861504
-0.01647431 -0.17133284 -0.095551 -0.039538346 0.04942293 0.03294862 0.046128068 0.21416603
0.046128068 -0.14826879 -0.07248697 -0.009884587 -0.069192104 0.036243483 0.04283321 0.03294862
0.1219099 -0.013179448 0.026358897 -0.056012657 0.0 0.013179448 0.092256136 -0.092256136
0.095551 -0.115320176 0.20428145 -0.03294862 0.092256136 -0.02965376 0.08896127 -0.115320176
0.08896127 -0.11861504 0.2009866 0.18451227 -0.02965376 -0.006589724 -0.07578183 -0.069192104
0.102140725 -0.006589724 0.092256136 0.082371555 -0.023064034 0.052717794 -0.092256136 -0.095551
-0.08896127 0.11861504 -0.09884586 0.15156366 0.019769173 0.036243483 0.18121742 -0.07578183
